FEATURE_EXTRACTION/rbm_layer_1_weights.npz (npz, 10012 bytes, 3 tensors)

W f4 [17, 128]
0	0x3e26fb25	0.16306742
1	0xbd6c97d7	-0.057761993
2	0xbe11ec17	-0.14250217
3	0xbda7ddab	-0.08196577
4	0x3e17a46b	0.14808814
5	0x3d8b9e7d	0.068173386
6	0x3cf29657	0.029612703
7	0x3e2268ed	0.15860339
8	0xbe4daf61	-0.20086433
9	0x3e1df377	0.15424906
10	0x3e082f37	0.13299261
11	0xbe32876b	-0.1743447
12	0xbd3d64ab	-0.046238583
13	0xbdc1195b	-0.09428664
14	0x3d89f7a1	0.067366846
15	0x3d5ca39f	0.05386698
16	0x3e36ca87	0.17850696
17	0xbd850c30	-0.06496465
18	0xbca4d452	-0.020120773
19	0x3dce316b	0.100680195
20	0xbe07b17b	-0.13251297
21	0xbd82c28e	-0.063847646
22	0xbdb227f3	-0.08699026
23	0xbd41717f	-0.04722738
24	0xbdf3f5fb	-0.119121514
25	0x3e072965	0.13199385
26	0xbe53229f	-0.20618676
27	0xbe13b251	-0.14423491
28	0xbdc39557	-0.09549969
29	0xbdd8fde5	-0.105953015
30	0xbe0cf3c7	-0.13764869
31	0xbd253803	-0.04033662
32	0x3d8079ea	0.06273253
33	0xbb83a3dd	-0.0040173368
34	0x3df3dd7b	0.119074784
35	0xbe339ad3	-0.1753953
36	0xbd6d8b03	-0.0579939
37	0xbd46a267	-0.048494723
38	0xbdad5ded	-0.084651805
39	0x3d68648b	0.05673651
40	0xbe00dc66	-0.12584075
41	0x3e1fb65d	0.1559691
42	0x3e1dd089	0.15411581
43	0xbe2097a3	-0.15682845
44	0x3d963b29	0.07335503
45	0x3e24b8b1	0.16086079
46	0x3d21a917	0.039467897
47	0x3baa7b4c	0.0052026864
48	0xbde2ca6f	-0.110737674
49	0x3e2a75ed	0.16646548
50	0xbdbd8f65	-0.09255866
51	0xbe58dec7	-0.21178733
52	0x3ce5cc3a	0.028051484
53	0x3dfd7587	0.12375932
54	0xbe0f28a3	-0.13980345
55	0xbe566ee3	-0.20940737
56	0xbe2cc107	-0.16870509
57	0xbcd9c398	-0.026582524
58	0xbe4d77ef	-0.20065282
59	0xbe544b89	-0.2073194
60	0x3c417bbe	0.011809288
61	0x3ce32b10	0.027730495
62	0x3dca60bd	0.098817326
63	0xbca2d7fe	-0.019878384
64	0x3c0ec66e	0.0087143015
65	0x3e2ed4ff	0.17073439
66	0xbbadfa19	-0.005309355
67	0xbe2c76f7	-0.16842256
68	0xbe58ebcf	-0.21183704
69	0xbd8148bd	-0.06312702
70	0xbdc318dd	-0.09526227
71	0x3e0c5291	0.13703372
72	0x3e2db1a9	0.16962303
73	0xbe03c9c7	-0.1286994
74	0xbdcd5bb7	-0.10027259
75	0x3d26e8e7	0.040749457
76	0x3de17335	0.11008302
77	0x3d9ee49b	0.07758447
78	0xbd6dd77f	-0.05806684
79	0xbd780f01	-0.060561184
80	0x3d9984e5	0.07496051
81	0xb9e4fc20	-0.00043675397
82	0xbc5f1b3c	-0.013617333
83	0xbd4ca357	-0.04996046
84	0x3e26cfcd	0.16290207
85	0xbdbea297	-0.09308355
86	0x3cc4f41e	0.024042185
87	0x3d8d310d	0.06894121
88	0x3d3190d5	0.043351013
89	0x3d32262d	0.04349344
90	0xbe268265	-0.16260679
91	0x3ce85ead	0.028365457
92	0xbd93ee5b	-0.07223197
93	0x3da68cfb	0.08132359
94	0x3aeb68f9	0.0017960361
95	0x3e133cad	0.14378615
96	0x3cf965f0	0.030444115
97	0xbe2bbc5b	-0.1677107
98	0x3d0fd30d	0.035113383
99	0xbd00b866	-0.031425856
100	0xbd1c71db	-0.03819452
101	0xbb7b7174	-0.0038367184
102	0xbde1fb23	-0.11034229
103	0x3dbac861	0.091202505
104	0xbe1d76c3	-0.15377335
105	0xbd674c93	-0.05646951
106	0xbdd5c297	-0.10437506
107	0x3e186c37	0.1488503
108	0xbe5d59fb	-0.21616356
109	0xbdb7463b	-0.08948942
110	0xbcf489bc	-0.029850833
111	0xbdbe71f3	-0.09299078
112	0x3e1a3831	0.15060498
113	0x3cf8effe	0.030387875
114	0x3d15a041	0.036529783
115	0x3df02263	0.11725309
116	0xbde1bb53	-0.110220574
117	0xbd286357	-0.041110363
118	0xbd09e0f4	-0.033661798
119	0xbd52477f	-0.051337715
120	0x3da118a3	0.07866027
121	0xbe283965	-0.16428144
122	0x3dd88899	0.10572929
123	0x3e127145	0.14301021
124	0x3cf6e10c	0.030136608
125	0x3cdee500	0.027208805
126	0xbe008b21	-0.12553073
127	0xbd2280d7	-0.039673652
128	0x473408aa	46088.664
129	0x47340597	46085.59
130	0x473408bf	46088.746
131	0x47340873	46088.45
132	0x4734047a	46084.477
133	0x473406d5	46086.832
134	0x4734088d	46088.55
135	0x473403e6	46083.9
136	0x473404fd	46084.99
137	0x473407f2	46087.945
138	0x473407e9	46087.91
139	0x47340624	46086.14
140	0x4734089b	46088.605
141	0x47340899	46088.598
142	0x47340541	46085.254
143	0x473408ae	46088.68
144	0x47340896	46088.586
145	0x473406b6	46086.71
146	0x473408b2	46088.695
147	0x4734054c	46085.297
148	0x473403ab	46083.668
149	0x473408af	46088.684
150	0x473407fa	46087.977
151	0x473404b5	46084.707
152	0x4734076d	46087.426
153	0x47340401	46084.004
154	0x47340849	46088.285
155	0x473407b0	46087.688
156	0x473408ca	46088.79
157	0x473403ff	46083.996
158	0x47340882	46088.508
159	0x4734070e	46087.055
160	0x473408af	46088.684
161	0x47340813	46088.074
162	0x47340775	46087.457
163	0x47340880	46088.5
164	0x4734074b	46087.293
165	0x473407c0	46087.75
166	0x47340761	46087.38
167	0x47340856	46088.336
168	0x473405e4	46085.89
169	0x4734088d	46088.55
170	0x4734084d	46088.3
171	0x4734050c	46085.047
172	0x473408ae	46088.68
173	0x4734088b	46088.543
174	0x47340870	46088.438
175	0x47340687	46086.527
176	0x47340424	46084.14
177	0x473405f7	46085.965
178	0x473408d0	46088.812
179	0x473408c1	46088.754
180	0x473407bf	46087.746
181	0x473408c2	46088.758
182	0x47340827	46088.152
183	0x47340881	46088.504
184	0x473408b3	46088.7
185	0x473406fd	46086.99
186	0x473407ce	46087.805
187	0x47340867	46088.402
188	0x473408c7	46088.777
189	0x47340668	46086.406
190	0x4734064d	46086.3
191	0x47340829	46088.16
192	0x473407b6	46087.71
193	0x47340816	46088.086
194	0x47340815	46088.082
195	0x47340644	46086.266
196	0x473405c6	46085.773
197	0x47340849	46088.285
198	0x47340820	46088.125
199	0x4734073a	46087.227
200	0x473405a7	46085.652
201	0x47340807	46088.027
202	0x47340648	46086.28
203	0x4734084c	46088.297
204	0x4734050a	46085.04
205	0x47340868	46088.406
206	0x473408bd	46088.74
207	0x473407dc	46087.86
208	0x473407fc	46087.984
209	0x47340777	46087.465
210	0x4734071b	46087.105
211	0x4734080b	46088.043
212	0x473404e5	46084.895
213	0x47340604	46086.016
214	0x473408c0	46088.75
215	0x473408b1	46088.69
216	0x473407d6	46087.836
217	0x47340589	46085.535
218	0x4734085b	46088.355
219	0x4734082e	46088.18
220	0x473408aa	46088.664
221	0x47340741	46087.254
222	0x4734040a	46084.04
223	0x473408b5	46088.707
224	0x47340815	46088.082
225	0x473408a8	46088.656
226	0x47340896	46088.586
227	0x4734084b	46088.293
228	0x47340479	46084.473
229	0x473407bb	46087.73
230	0x4734083f	46088.246
231	0x473405fb	46085.98
232	0x47340435	46084.207
233	0x47340806	46088.023
234	0x47340517	46085.09
235	0x47340889	46088.535
236	0x473404dd	46084.863
237	0x47340582	46085.508
238	0x47340800	46088.0
239	0x473406f9	46086.973
240	0x473408bd	46088.74
241	0x47340848	46088.28
242	0x473406d5	46086.832
243	0x473403c5	46083.77
244	0x47340863	46088.387
245	0x473406c2	46086.758
246	0x47340583	46085.51
247	0x473408c2	46088.758
248	0x473403a5	46083.645
249	0x473406ce	46086.805
250	0x47340647	46086.277
251	0x4734087c	46088.484
252	0x473408c7	46088.777
253	0x4734085c	46088.36
254	0x473406eb	46086.918
255	0x473407c4	46087.766

bh f4 [128]
0	0xc2ab3462	-85.60231
1	0xc2ac35b4	-86.10489
2	0xc2ab3399	-85.60078
3	0xc2aa580f	-85.17199
4	0xc2ac4f68	-86.15509
5	0xc2ab5b85	-85.67875
6	0xc2aa2c8d	-85.08701
7	0xc2ac822a	-86.25423
8	0xc2abdb3d	-85.9282
9	0xc2abc56e	-85.885605
10	0xc2ab65f9	-85.699165
11	0xc2aadc81	-85.43067
12	0xc2ab6e4b	-85.715416
13	0xc2ab7c1d	-85.74241
14	0xc2ac2766	-86.07695
15	0xc2a9caf8	-84.89642
16	0xc2ab6089	-85.688545
17	0xc2aafdbd	-85.49558
18	0xc2aa3c35	-85.11759
19	0xc2abdf3b	-85.936
20	0xc2ac26be	-86.07567
21	0xc2aae3fd	-85.44529
22	0xc2ab11c6	-85.53471
23	0xc2abfbd9	-85.99189
24	0xc2abccf8	-85.90033
25	0xc2ac52b7	-86.16155
26	0xc2aa31c4	-85.0972
27	0xc2ab6a28	-85.70734
28	0xc2aa4471	-85.133675
29	0xc2ac36c2	-86.10695
30	0xc2a985f7	-84.76165
31	0xc2ab6926	-85.70537
32	0xc2ab7385	-85.725624
33	0xc2abafd2	-85.8434
34	0xc2ab5048	-85.6568
35	0xc2ab27b9	-85.57758
36	0xc2aafca8	-85.49347
37	0xc2ab78c7	-85.73589
38	0xc2ab761e	-85.7307
39	0xc2ab91d6	-85.784836
40	0xc2aba6e3	-85.82595
41	0xc2ab8f28	-85.7796
42	0xc2aaab03	-85.33401
43	0xc2ac4572	-86.135635
44	0xc2aa83b1	-85.25721
45	0xc2ab936a	-85.78792
46	0xc2aaf7db	-85.48409
47	0xc2abdc81	-85.93067
48	0xc2ac3282	-86.09865
49	0xc2abad6b	-85.83871
50	0xc2a9e569	-84.94807
51	0xc2ab68da	-85.70479
52	0xc2ac14c3	-86.04055
53	0xc2aa5c11	-85.17982
54	0xc2aad390	-85.41321
55	0xc2ab93a6	-85.788376
56	0xc2ab8e0e	-85.77745
57	0xc2ab03f2	-85.507706
58	0xc2abba9b	-85.86446
59	0xc2ab19ed	-85.55064
60	0xc2ab1df6	-85.55852
61	0xc2ab90f1	-85.78309
62	0xc2ab6481	-85.6963
63	0xc2aa9f93	-85.31167
64	0xc2ab9af8	-85.80267
65	0xc2aab669	-85.35627
66	0xc2aa664c	-85.1998
67	0xc2aba438	-85.82074
68	0xc2abe4de	-85.94701
69	0xc2aad3ad	-85.41343
70	0xc2abcee1	-85.90406
71	0xc2aa80ef	-85.25182
72	0xc2ac10b1	-86.0326
73	0xc2ab9a01	-85.80079
74	0xc2ab22de	-85.5681
75	0xc2ab3852	-85.61
76	0xc2abf8ff	-85.98632
77	0xc2a989f9	-84.76948
78	0xc2ab2960	-85.58081
79	0xc2aa8b9d	-85.27268
80	0xc2aba4b6	-85.8217
81	0xc2aad146	-85.40874
82	0xc2abb29e	-85.84886
83	0xc2ab5cbe	-85.68114
84	0xc2ac15d7	-86.042656
85	0xc2abdd38	-85.93207
86	0xc2aae7b5	-85.45255
87	0xc2ab56e9	-85.66975
88	0xc2ab91e1	-85.78492
89	0xc2ac12a1	-86.036385
90	0xc2aae088	-85.43854
91	0xc2ab65c9	-85.6988
92	0xc2abb50b	-85.8536
93	0xc2abdd01	-85.93165
94	0xc2ac548a	-86.165115
95	0xc2aa3198	-85.09686
96	0xc2ab3e10	-85.621216
97	0xc2aa5e9e	-85.1848
98	0xc2ab8eb0	-85.77869
99	0xc2aa6aa9	-85.20832
100	0xc2ac51c2	-86.15968
101	0xc2abb8a8	-85.86066
102	0xc2aab735	-85.35783
103	0xc2aba73f	-85.82665
104	0xc2ac0201	-86.003914
105	0xc2aac10c	-85.377045
106	0xc2ac3b26	-86.115524
107	0xc2aa6a9f	-85.208244
108	0xc2abcf67	-85.90508
109	0xc2abd856	-85.92253
110	0xc2aafa17	-85.48846
111	0xc2ab1705	-85.54496
112	0xc2aa8ce2	-85.27516
113	0xc2ab9e18	-85.80878
114	0xc2ab3e47	-85.621635
115	0xc2ac250c	-86.07236
116	0xc2abb5c7	-85.855034
117	0xc2ab1eb4	-85.55997
118	0xc2abc139	-85.87739
119	0xc2ab319e	-85.59691
120	0xc2ac7dc9	-86.245674
121	0xc2ab44b4	-85.634186
122	0xc2abb06e	-85.84459
123	0xc2ab774b	-85.732994
124	0xc2aaff55	-85.498695
125	0xc2aa92a9	-85.286446
126	0xc2aa9821	-85.29713
127	0xc2aae391	-85.444466

bv f4 [17]
0	0xbdcc9c28	-0.09990722
1	0x47340895	46088.582
2	0x42a8d073	84.40713
3	0xbfa7c3ad	-1.310659
4	0xbe21e6e4	-0.15810734
5	0xbf6d0d67	-0.92598575
6	0xbf0ae914	-0.542619
7	0xbdd70e4f	-0.10500776
8	0xbe1d56fc	-0.15365213
9	0x3fd3e4b3	1.6554168
10	0xbdf3a8bc	-0.11897418
11	0xbde3870a	-0.11109741
12	0xbe3eb3f4	-0.18623334
13	0xbe1fec3c	-0.1561746
14	0xbdb704df	-0.08936476
15	0xbde4fefc	-0.11181447
16	0xc00690b8	-2.102583
