FEATURE_EXTRACTION/rbm_layer_3_weights.npz (npz, 9304 bytes, 3 tensors)

W f4 [64, 32]
0	0xbe6a31ce	-0.22870561
1	0xbf0a2d29	-0.5397516
2	0xbee3b52c	-0.4447416
3	0xbf1d80ee	-0.61524856
4	0x3ee1d260	0.44105816
5	0xbf2cbbec	-0.67474246
6	0xbf4ddb3c	-0.8041265
7	0x3f27d88a	0.6556479
8	0xbef1bd54	-0.47214758
9	0xbeda0f5c	-0.42589843
10	0xbeffc6e2	-0.49956423
11	0xbedda247	-0.4328787
12	0xbe8a7ec2	-0.27049834
13	0xbecb55e2	-0.3971396
14	0xbeac2b58	-0.3362682
15	0xbf03b652	-0.51450074
16	0x3eee8405	0.46585098
17	0xbf22db68	-0.6361604
18	0x3f2caec2	0.6745416
19	0xbf1b6d01	-0.607132
20	0xbf165183	-0.58718127
21	0xbf3295d8	-0.69759893
22	0xbf0063a8	-0.50152063
23	0x3e600ddf	0.21880291
24	0xbf181af6	-0.5941614
25	0xbf270ca3	-0.6525366
26	0xbeafcb6b	-0.34334883
27	0xbebe4947	-0.3716528
28	0xbf0f9aa8	-0.5609536
29	0x3f5f039e	0.87114894
30	0xbf19a86c	-0.60022616
31	0xbf18c1f6	-0.5967096
32	0x3e1b3657	0.15157448
33	0x3eae7e24	0.34080613
34	0x3e8b4a61	0.27205184
35	0x3ebce55b	0.36893734
36	0xbebec2ac	-0.37257898
37	0x3ecb7e0f	0.39744613
38	0x3e941fb4	0.28930438
39	0xbf2f62d1	-0.68510157
40	0x3df7423f	0.12073182
41	0x3e8c7ee3	0.27440557
42	0x3df5007c	0.11962983
43	0x3f0f8814	0.56067014
44	0x3dbe7fc1	0.09301711
45	0x3e4ff0c0	0.20306683
46	0x3f0689d8	0.5255408
47	0x3e910b88	0.2832911
48	0xbeda3d11	-0.42624715
49	0x3e106ea2	0.14104703
50	0xbf2cf452	-0.67560303
51	0x3eccb9c6	0.39985484
52	0x3eaedc5f	0.34152505
53	0x3eb1aca9	0.34702042
54	0x3e9c27ca	0.30499107
55	0xbe02b16d	-0.12762995
56	0x3f08b641	0.534031
57	0x3ecf664b	0.4050773
58	0x3cf0c974	0.029392935
59	0x3e5a1400	0.21296692
60	0x3ead5af3	0.3385845
61	0xbf400023	-0.7500021
62	0x3e8cf764	0.27532494
63	0x3f0d43b1	0.55181414
64	0x3eca7514	0.3954245
65	0x3df259e6	0.11833553
66	0x3e7b7c72	0.24559191
67	0x3e8772e3	0.2645484
68	0xbed01fcc	-0.4064926
69	0x3e85ca0d	0.26130715
70	0x3e8f2564	0.27958214
71	0xbf1221c7	-0.5708279
72	0x3e8c9d1c	0.27463615
73	0x3ebb5f67	0.36596224
74	0x3e9a3ecd	0.30126038
75	0x3ef4b120	0.47791386
76	0x3dd2660c	0.1027337
77	0x3e449855	0.19198735
78	0x3e260508	0.16212857
79	0x3e6a0db7	0.22856794
80	0xbe9db00d	-0.3079838
81	0x3eb635c8	0.35587907
82	0xbf47b576	-0.7801126
83	0x3e003ca3	0.12523131
84	0x3edcf353	0.43154392
85	0x3f0d8335	0.5527833
86	0x3e97b5d5	0.29630914
87	0xbe878c79	-0.2647436
88	0x3e4c5cbe	0.19957253
89	0x3e85194d	0.25995865
90	0x3e6a4069	0.22876133
91	0x3e998910	0.29987383
92	0x3f1337fd	0.57507306
93	0xbf4299ad	-0.7601574
94	0x3ee5b3ae	0.44863647
95	0x3ee44ca2	0.44589716
96	0x3e08078b	0.13284127
97	0x3eefd8c4	0.46845067
98	0x3e973400	0.2953186
99	0x3e07d708	0.13265622
100	0xbf339c47	-0.70160335
101	0x3e52e80f	0.20596336
102	0x3e97fdac	0.29685724
103	0xbf15916a	-0.5842501
104	0x3ef4ede9	0.4783776
105	0x3ebbeaed	0.36702672
106	0x3e6deaca	0.23234096
107	0x3ee4640d	0.44607583
108	0x3ee277df	0.4423208
109	0x3e81afb1	0.25329354
110	0x3e185b23	0.14878516
111	0x3e3bfb10	0.18357491
112	0xbebde0db	-0.37085614
113	0x3ee78acc	0.4522308
114	0xbf441071	-0.7658759
115	0x3d9dd7d5	0.07707182
116	0x3ecdfeae	0.40233368
117	0x3f099ac6	0.5375179
118	0x3e5d51a7	0.21613179
119	0xbde61b1a	-0.11235638
120	0x3eb4f4f7	0.35343143
121	0x3e5dc4b4	0.21657068
122	0x3d190b63	0.037364375
123	0x3efda5ad	0.49540463
124	0x3e7bf938	0.24606788
125	0xbf02db65	-0.5111602
126	0x3ea62166	0.32447356
127	0x3ed3a195	0.41334215
128	0x3e5f6662	0.218164
129	0x3e71c9c1	0.2361212
130	0x3e899374	0.2687031
131	0x3dd3779a	0.103255466
132	0xbf193770	-0.59850216
133	0x3e535f2b	0.20641772
134	0x3ef73555	0.48282877
135	0xbf4266a1	-0.7593785
136	0x3ee77f11	0.4521413
137	0x3ea8fa08	0.3300326
138	0x3ed7db22	0.42159373
139	0x3ea1a310	0.3156972
140	0x3ed6f037	0.41980144
141	0x3d93a0be	0.072083935
142	0x3eb6dd18	0.35715556
143	0x3e9760f2	0.2956615
144	0xbeeeb13a	-0.46619588
145	0x3e9ce8a4	0.3064624
146	0xbeb0899f	-0.34479997
147	0x3e83f021	0.2576914
148	0x3e93de4a	0.2888053
149	0x3eb89d1b	0.36057362
150	0x3eeab665	0.4584228
151	0xbe6d106b	-0.23150794
152	0x3e2e8bde	0.17045543
153	0x3ebdc739	0.37066057
154	0x3e21fce5	0.15819128
155	0x3f01911d	0.5061205
156	0x3ee15654	0.44011176
157	0xbf3bc071	-0.7334052
158	0x3c5bd838	0.01341825
159	0x3e99bcbc	0.30026805
160	0x3dd666ae	0.10468803
161	0x3e6d7e07	0.23192607
162	0x3d8f484e	0.06996213
163	0x3f0f94e2	0.5608655
164	0xbf16a591	-0.58846384
165	0x3e9852d7	0.29750702
166	0x3e569682	0.20955852
167	0xbf54a95f	-0.8307094
168	0x3e7737a2	0.24142316
169	0x3ee7cac5	0.45271888
170	0x3ddee455	0.10883395
171	0x3ec7f044	0.39050496
172	0x3e4052eb	0.1878163
173	0x3eb17242	0.34657484
174	0x3f023f04	0.50877404
175	0x3e69d1be	0.22833917
176	0xbee2e0c3	-0.44312105
177	0x3ee4f436	0.44717568
178	0xbee2c492	-0.44290596
179	0x3dca15c6	0.09867434
180	0x3f0dca73	0.5538704
181	0x3ebbc4ee	0.36673683
182	0x3ec96e9e	0.39342207
183	0xbd9b0edf	-0.07571196
184	0x3e2181fd	0.15772243
185	0x3e2dad74	0.16960698
186	0x3ea0e990	0.31428194
187	0x3e3d12b9	0.18464173
188	0x3ef8c487	0.48587438
189	0xbf509cba	-0.81489146
190	0x3eb0d3b0	0.34536505
191	0x3ec837f7	0.39105198
192	0xbe61b8b6	-0.22043118
193	0xbed8333e	-0.42226595
194	0xbed91e87	-0.42406103
195	0xbedeb80e	-0.43499798
196	0x3e954b67	0.2915909
197	0xbeac0cf4	-0.33603632
198	0xbee2887c	-0.44244754
199	0x3eee3d2a	0.4653104
200	0xbf172c91	-0.5905238
201	0xbf3458c8	-0.7044797
202	0xbed0e2ac	-0.40797937
203	0xbef65770	-0.48113585
204	0xbe67151c	-0.22566646
205	0xbe9666e9	-0.2937539
206	0xbf3109ea	-0.6915575
207	0xbf395eff	-0.7241058
208	0x3ed5551e	0.41666502
209	0xbecb5fb2	-0.39721447
210	0x3f3f1a5f	0.74649614
211	0xbf2fa9e3	-0.686186
212	0xbf39761b	-0.7244584
213	0xbf5c59c2	-0.8607446
214	0xbed44c79	-0.41464594
215	0x3f0cf634	0.55063176
216	0xbeea4776	-0.45757645
217	0xbf2f7a25	-0.6854575
218	0xbe8521ff	-0.260025
219	0xbf35f0a0	-0.7107029
220	0xbf310430	-0.69147015
221	0x3f5e17a4	0.8675482
222	0xbf02e340	-0.51128006
223	0xbf009ec8	-0.5024228
224	0x3e833ebc	0.256338
225	0x3ed2f4c0	0.41202354
226	0x3e79dab5	0.24399836
227	0x3eb39331	0.35073236
228	0xbefd4a14	-0.4947058
229	0x3eb886dc	0.3604039
230	0x3f0c0995	0.5470212
231	0xbf1cf146	-0.61305654
232	0x3eb674eb	0.35636076
233	0x3eda5115	0.42639986
234	0x3ebb70fd	0.3660964
235	0x3e932577	0.2873952
236	0x3e5400ab	0.2070338
237	0x3ebb3088	0.36560464
238	0x3e819f44	0.25316823
239	0x3e472fb3	0.1945179
240	0xbef6ecff	-0.4822769
241	0x3e4c89e4	0.19974476
242	0xbf243989	-0.6415029
243	0x3e2c37a7	0.16818105
244	0x3eb7d6b3	0.3590599
245	0x3e76c3a6	0.24098071
246	0x3dd5537d	0.10416315
247	0xbe397f71	-0.18115021
248	0x3e896b57	0.26839706
249	0x3f1e84ff	0.61921686
250	0x3da9fbee	0.08300005
251	0x3eba0f11	0.3633962
252	0x3e0de18d	0.13855572
253	0xbf22cce7	-0.63593906
254	0x3ee18163	0.44044027
255	0x3e4d0c4d	0.20024224

bh f4 [32]
0	0xbef56193	-0.47926006
1	0xbf017765	-0.50572807
2	0xbeeebd2e	-0.46628708
3	0xbf155474	-0.5833199
4	0x3e36b4f9	0.17842473
5	0xbefcfacd	-0.49410096
6	0xbf076ee9	-0.5290361
7	0x3e81f1e7	0.2537987
8	0xbf0cd590	-0.5501337
9	0xbf03a235	-0.51419383
10	0xbee23d67	-0.4418747
11	0xbf086312	-0.5327617
12	0xbeef33c6	-0.46719187
13	0xbeeed7be	-0.46648973
14	0xbef43840	-0.47699165
15	0xbf07ae59	-0.5300041
16	0x3e1a695e	0.15079257
17	0xbf0276ad	-0.50962335
18	0x3e95f8cb	0.29291376
19	0xbf009162	-0.50221837
20	0xbefaa15f	-0.4895124
21	0xbf0936b1	-0.5359908
22	0xbeffe82d	-0.49981824
23	0x3e309604	0.17244726
24	0xbf08259f	-0.53182405
25	0xbef90f16	-0.48644322
26	0xbefd32bb	-0.49452767
27	0xbf04c3e3	-0.518614
28	0xbeeac8d4	-0.45856345
29	0x3e9ad8bc	0.3024348
30	0xbee50806	-0.44732684
31	0xbf030500	-0.51179504

bv f4 [64]
0	0x3e6d5bf4	0.23179609
1	0xbe7b53db	-0.24543707
2	0xbe83c305	-0.25734726
3	0xbe6b8d00	-0.23003006
4	0xbe3960b6	-0.18103299
5	0xbe614160	-0.21997595
6	0x3e799e81	0.2437687
7	0xbe3b77a2	-0.18307355
8	0xbe23a734	-0.15981752
9	0x3e1606b3	0.14650993
10	0x3e9e6b04	0.3094102
11	0x3e85fc02	0.2616883
12	0x3e3d6130	0.18494105
13	0xbe8cf38d	-0.27529564
14	0xbe4949db	-0.1965708
15	0xbe22c868	-0.15896761
16	0xbea51fc3	-0.32250795
17	0xbe67b940	-0.22629261
18	0xbe5c60e7	-0.2152134
19	0xbe841f80	-0.25805283
20	0xbe221385	-0.15827759
21	0xbe7289d1	-0.23685385
22	0xbe235546	-0.15950498
23	0xbe0da33b	-0.13831799
24	0xbea49fb9	-0.3215311
25	0x3e08d0cd	0.13360901
26	0xbe552de2	-0.20818284
27	0xbe4c0c7c	-0.19926637
28	0xbd16fde8	-0.036863238
29	0xbe004032	-0.12524489
30	0x3e81dc4f	0.25363395
31	0x3e3221ad	0.17395659
32	0xbe3b37be	-0.18282983
33	0x3e82ccae	0.25546783
34	0x3e27a12f	0.1637008
35	0x3e2602e7	0.16212045
36	0xbe9acfbd	-0.30236617
37	0xbe23b173	-0.1598566
38	0xbea97b3d	-0.33101836
39	0xbe67aee3	-0.22625308
40	0x3e2a40bc	0.16626257
41	0xbe724a1a	-0.2366108
42	0xbe391dcb	-0.18077771
43	0x3e0db54c	0.1383869
44	0xbe6960c3	-0.22790818
45	0xbe85e73f	-0.2615299
46	0xbe6ec55e	-0.23317477
47	0xbe471852	-0.19442871
48	0x3e97bee7	0.29637834
49	0xbe2b3a8f	-0.16721557
50	0xbe38d89a	-0.18051377
51	0xbe44cd3d	-0.19218917
52	0xbe8576e0	-0.26067257
53	0xbe3e03bf	-0.18556117
54	0xbe8f3d0b	-0.2797626
55	0xbe53bc63	-0.20677333
56	0xbe1f9f66	-0.1558815
57	0x3ea05d32	0.31321102
58	0xbe72e5da	-0.23720494
59	0xbe68d844	-0.22738749
60	0xbe779199	-0.24176635
61	0xbe15f308	-0.1464349
62	0xbe12d4bf	-0.14338969
63	0x3e321321	0.1739011
