FEATURE_EXTRACTION/rbm_layer_2_weights.npz (npz, 34264 bytes, 3 tensors)

W f4 [128, 64]
0	0xbeca6b3f	-0.39534947
1	0x3d9bd02c	0.07608065
2	0x3e5b82e0	0.21436644
3	0x3e9d9269	0.30775765
4	0x3ca01938	0.019543275
5	0x3e331836	0.17489704
6	0xbeae5952	-0.3405252
7	0x3e51cb02	0.20487598
8	0x3e9247ca	0.28570396
9	0xbecff62a	-0.40617496
10	0xbeb35072	-0.35022312
11	0xbf07bf97	-0.5302672
12	0xbf1a440b	-0.60260075
13	0x3db6d7a7	0.08927851
14	0x3e7ba200	0.24573517
15	0x3e5635cf	0.20918964
16	0x3d37f5cf	0.044912156
17	0x3e6fb770	0.2340982
18	0x3e3ae073	0.18249683
19	0x3e3be1b9	0.18347825
20	0x3e817589	0.25284985
21	0x3d9cabea	0.076499775
22	0x3e9edeef	0.3102946
23	0x3e563348	0.20918
24	0x3da01866	0.07817154
25	0xbeefcefc	-0.46837604
26	0x3e0f3e95	0.13988717
27	0x3e93c557	0.28861496
28	0x3e405040	0.18780613
29	0x3dec836f	0.115485065
30	0xbf09d3eb	-0.53838986
31	0xbefc6c6c	-0.4930147
32	0x3e8ffabc	0.28120983
33	0xbeba17ed	-0.3634638
34	0xbf022a08	-0.50845385
35	0xbee13075	-0.43982282
36	0x3bcd1d4a	0.006259595
37	0x3e8caacd	0.2747406
38	0x3d3a8459	0.045536373
39	0x3e9c1571	0.30485108
40	0xbf0268c1	-0.5094109
41	0xbb8a9d03	-0.004230143
42	0x3e5d3fb3	0.2160633
43	0xbf03cff1	-0.5148917
44	0x3e7d7f95	0.247557
45	0x3e77134e	0.24128458
46	0x3df71b8c	0.12065801
47	0x3dffefb7	0.12496894
48	0xbf1ac803	-0.60461444
49	0x3e311357	0.17292534
50	0x3e72ff7d	0.23730274
51	0x3e4b75f5	0.19869216
52	0x3d0584c1	0.032597307
53	0x3e09f0d5	0.13470776
54	0x3e85558e	0.26041836
55	0x3e92b4d3	0.28653583
56	0x3e0da77b	0.1383342
57	0xbefb6948	-0.4910376
58	0x3da94602	0.08265306
59	0x3ce2b30e	0.02767327
60	0x3e855056	0.26037854
61	0x3d5da43a	0.054111697
62	0xba85dd24	-0.0010213
63	0xbec7d7dc	-0.39031875
64	0xbea87a5f	-0.32905862
65	0x3e983cc9	0.29733875
66	0x3d924478	0.07141966
67	0x3e312eba	0.17302981
68	0x3e70e090	0.23523164
69	0x3e396807	0.1810609
70	0xbef0290e	-0.46906322
71	0x3db04292	0.08606447
72	0x3b982869	0.004643489
73	0xbf05e129	-0.5229669
74	0xbed59cab	-0.4172109
75	0xbed713dd	-0.42007342
76	0xbedf0813	-0.43560848
77	0x3dca60ee	0.09881769
78	0x3ddaa78d	0.10676489
79	0x3d9042df	0.07044005
80	0x3e2e4811	0.17019679
81	0x3e0cc28e	0.13746092
82	0x3e897eca	0.26854545
83	0x3e90356f	0.28165767
84	0x3e63190a	0.2217752
85	0x3e14e704	0.1454125
86	0x3d9008f2	0.07032956
87	0x3e01c2c1	0.12671949
88	0x3e9ed400	0.31021118
89	0xbefb7323	-0.4911128
90	0x3d84517a	0.06460853
91	0x3dfb3127	0.122652344
92	0x3dce9b38	0.100881994
93	0x3e8b4595	0.27201524
94	0xbf1fce6a	-0.6242434
95	0xbef4a302	-0.47780615
96	0x3e6b91bc	0.23004812
97	0xbed56104	-0.4167558
98	0xbf063043	-0.5241739
99	0xbef20c8a	-0.47275192
100	0x3e8b4540	0.2720127
101	0x3e460a6c	0.19339913
102	0x3e0185a8	0.12648642
103	0x3e2a402a	0.16626039
104	0xbf0b0da9	-0.5431772
105	0x3e5b50ce	0.21417543
106	0x3db93967	0.09044152
107	0xbf03b26c	-0.51444125
108	0x3e0f587e	0.13998601
109	0x3ea01090	0.31262636
110	0x3de54912	0.11195578
111	0x3e01fcfe	0.12694165
112	0xbeb92987	-0.36164495
113	0x3e9f5302	0.31118017
114	0x3dbaf38f	0.09128486
115	0x3ca306af	0.019900648
116	0x3e32d947	0.17465697
117	0x3e2a4a94	0.16630012
118	0x3e0baacd	0.13639374
119	0x3e01e679	0.12685575
120	0x3e91c466	0.28470153
121	0xbecdc9e9	-0.40193108
122	0x3e9fa129	0.31177643
123	0x3e10eb79	0.14152326
124	0x3e4d2e0f	0.20037101
125	0x3e8217e4	0.25408852
126	0x3d21c0ae	0.039490394
127	0xbf16c65b	-0.58896416
128	0xbeb15cd0	-0.34641123
129	0x3e260181	0.16211511
130	0x3e722605	0.23647316
131	0x3d4d077d	0.05005597
132	0x3debcb66	0.115134045
133	0x3d057ce7	0.03258982
134	0xbed9ee3d	-0.42564574
135	0x3c8ae058	0.016952679
136	0x3e86c781	0.26324084
137	0xbf01a655	-0.5064443
138	0xbf1319a0	-0.57460976
139	0xbf081e88	-0.53171587
140	0xbf07d6cb	-0.53062123
141	0x3e7ef1d8	0.24896944
142	0x3e70a2ff	0.23499678
143	0x3cb522dd	0.02211135
144	0x3ea6fd68	0.3261521
145	0x3d53f7ab	0.051749866
146	0x3e95b4a9	0.29239395
147	0x3e6460e9	0.22302593
148	0x3e8d7327	0.27626917
149	0x3dfcaf09	0.12338073
150	0x3e34b156	0.17645773
151	0x3cb74568	0.022371963
152	0x3e9c51f1	0.30531266
153	0xbf0c2fc5	-0.5476039
154	0x3e8d3810	0.27581835
155	0x3e60841b	0.21925394
156	0x3dd7a71d	0.10529921
157	0x3e9e6d0c	0.3094257
158	0xbea72e40	-0.32652473
159	0xbeaa30d4	-0.33240378
160	0x3e9df37b	0.30849823
161	0xbea7c240	-0.32765388
162	0xbed2abbf	-0.41146657
163	0xbea283f0	-0.31741285
164	0x3e2341bf	0.15943049
165	0x3e420247	0.18946181
166	0x3d8a3e7d	0.067502
167	0x3daef072	0.08541955
168	0xbf018166	-0.5058807
169	0x3e8890f3	0.26673087
170	0x3e403b3b	0.18772595
171	0xbf13d54e	-0.5774735
172	0x3dca1533	0.09867325
173	0x3d3da157	0.046296444
174	0x3e9a6971	0.3015857
175	0x3e3a48a4	0.18191773
176	0xbef7c59c	-0.4839295
177	0x3c9bfaf3	0.01904056
178	0x3d673542	0.056447275
179	0x3e1f3e6e	0.15551159
180	0x3e08d978	0.13364208
181	0x3dea4316	0.11438577
182	0x3c80ad55	0.015707651
183	0x3e83c95b	0.2573956
184	0x3ea9e467	0.3318207
185	0xbf189db8	-0.5961566
186	0x3db0b87f	0.0862894
187	0x3e0fcd67	0.14043199
188	0x3e86fa04	0.26362622
189	0x3e37a51f	0.17934082
190	0x3dd13827	0.10215788
191	0xbf15f429	-0.58575684
192	0xbeed253e	-0.46317476
193	0x3e8c9ff5	0.27465788
194	0x3e96d494	0.2945906
195	0x3e9c23a4	0.30495942
196	0x3e5b5f36	0.21423039
197	0x3b9d3b8e	0.0047983592
198	0xbeba8672	-0.364307
199	0x3d9a4f07	0.075346045
200	0x3d81c12d	0.063356735
201	0xbf14e54a	-0.5816237
202	0xbee31663	-0.44353017
203	0xbf138ad6	-0.5763372
204	0xbecf3249	-0.40468052
205	0x3e4c1c63	0.19932704
206	0x3d284af2	0.0410871
207	0x3e2bdc2c	0.16783208
208	0x3d820177	0.06347936
209	0x3c66b359	0.014080846
210	0x3e1b87c4	0.15188509
211	0x3e508ada	0.20365468
212	0x3e51bd9c	0.20482486
213	0x3e776d75	0.24162848
214	0x3cde5622	0.02714068
215	0x3e2b6cf5	0.16740783
216	0x3e202fba	0.15643206
217	0xbf0fa707	-0.5611424
218	0x3d47d3e0	0.048786044
219	0x3e2bf484	0.16792494
220	0x3dd081e5	0.101810254
221	0x3e592518	0.21205556
222	0xbf15acd4	-0.5846684
223	0xbeacc064	-0.33740532
224	0x3dc4e9d0	0.09614909
225	0xbeacdfa0	-0.33764362
226	0xbef6dd21	-0.48215583
227	0xbf0770b3	-0.5290634
228	0x3e746319	0.23865928
229	0x3e1a19aa	0.15048853
230	0x3e6acb49	0.2292911
231	0x3e378d71	0.1792505
232	0xbec8d8fa	-0.3922804
233	0x3e465758	0.19369256
234	0x3e38bc1a	0.18040505
235	0xbf106ec6	-0.56419027
236	0x3ea3af0e	0.31969494
237	0x3e5ebc18	0.2175144
238	0x3e04b499	0.12959518
239	0x3e40536e	0.18781826
240	0xbeb04507	-0.34427664
241	0x3dc8679e	0.097853884
242	0x3d2672e0	0.040636897
243	0x3e153754	0.14571887
244	0x3e581723	0.21102576
245	0x3d649a34	0.055811122
246	0x3e5ef4f0	0.21773124
247	0x3e73cfaf	0.23809694
248	0x3e3f7ec9	0.18700708
249	0xbeedab76	-0.46419877
250	0x3e9e1d8c	0.30881917
251	0x3e9521b5	0.2912728
252	0x3e736ca1	0.23771907
253	0x3e84fe5c	0.2597531
254	0x3d6de245	0.058077116
255	0xbf0ac8cc	-0.5421264

bh f4 [64]
0	0x40624749	3.535601
1	0xc0506bba	-3.256575
2	0xc055e8a6	-3.3423247
3	0xc04f801f	-3.242195
4	0xc05249b6	-3.285749
5	0xc059e811	-3.4047892
6	0x40652819	3.5805724
7	0xc04dae92	-3.21378
8	0xc056c88c	-3.3559904
9	0x40617417	3.5227106
10	0x40617699	3.5228636
11	0x4060ba3d	3.511367
12	0x405fc79f	3.496559
13	0xc0478595	-3.1175282
14	0xc04b489a	-3.1763062
15	0xc05aa39d	-3.4162362
16	0xc057f723	-3.374459
17	0xc0536178	-3.302824
18	0xc0553449	-3.3313162
19	0xc050391d	-3.253486
20	0xc047445a	-3.1135468
21	0xc058c4f4	-3.387021
22	0xc04ec1cf	-3.2305791
23	0xc05483e1	-3.3205492
24	0xc053bd19	-3.3084166
25	0x4062931d	3.540229
26	0xc050dda9	-3.263529
27	0xc0493c79	-3.144316
28	0xc0443965	-3.066003
29	0xc0499322	-3.1496053
30	0x4060dd37	3.513502
31	0x405d5617	3.4583795
32	0xc051a76b	-3.2758434
33	0x40640fd8	3.563467
34	0x405f8a40	3.492813
35	0x40636903	3.5532844
36	0xc047e23b	-3.123183
37	0xc05854b2	-3.3801694
38	0xc04f59f8	-3.2398663
39	0xc0551eeb	-3.330012
40	0x40643e13	3.5662887
41	0xc0525eb7	-3.287031
42	0xc04ac693	-3.16837
43	0x405749b2	3.363873
44	0xc05a544f	-3.4113958
45	0xc053bbe1	-3.3083422
46	0xc04bbb59	-3.1833098
47	0xc059fafa	-3.4059434
48	0x405aaa13	3.4166305
49	0xc04f3dc7	-3.2381456
50	0xc04e9dba	-3.2283769
51	0xc053bee0	-3.308525
52	0xc051cf57	-3.27828
53	0xc0524a08	-3.2857685
54	0xc04cd977	-3.200773
55	0xc04c4f85	-3.1923535
56	0xc056c506	-3.3557754
57	0x4064578a	3.567843
58	0xc059c132	-3.4024167
59	0xc04c42d5	-3.191579
60	0xc05bb89e	-3.4331431
61	0xc04c8d55	-3.1961262
62	0xc056b2e6	-3.354669
63	0x4065f1ba	3.5928788

bv f4 [128]
0	0xbe7c7d63	-0.24657206
1	0xbe71b142	-0.23602775
2	0xbe58180b	-0.21102922
3	0xbe781836	-0.24227986
4	0xbe6c17d5	-0.23055966
5	0xbe66fcc9	-0.22557367
6	0xbe5a319e	-0.2130799
7	0xbe4f6461	-0.20253135
8	0xbe6d64b4	-0.23182946
9	0xbe4afe25	-0.19823511
10	0xbe5a4028	-0.21313536
11	0xbe5764e3	-0.21034579
12	0xbe63c022	-0.22241262
13	0xbe940ac3	-0.2891446
14	0xbe7548f5	-0.23953612
15	0xbe899812	-0.26873833
16	0xbe74fe8b	-0.23925225
17	0xbe3ee4d7	-0.18641983
18	0xbe5ab154	-0.21356708
19	0xbe5880b7	-0.21142851
20	0xbe51b188	-0.20477879
21	0xbe62cda5	-0.2214876
22	0xbe5b7ea2	-0.21435025
23	0xbe814828	-0.25250363
24	0xbe69cb45	-0.22831447
25	0xbe2f4b65	-0.17118604
26	0xbe63ac97	-0.22233807
27	0xbe79e497	-0.24403606
28	0xbe43ca1f	-0.19120072
29	0xbe7264c4	-0.23671252
30	0xbe7364a4	-0.2376886
31	0xbe6d64c1	-0.23182966
32	0xbe417b99	-0.18894805
33	0xbe575c4b	-0.210313
34	0xbe4a4ad3	-0.19755106
35	0xbe70e3f1	-0.23524453
36	0xbe354bd7	-0.17704712
37	0xbe883190	-0.26600313
38	0xbe6d648e	-0.2318289
39	0xbe7e17fb	-0.24813835
40	0xbe845865	-0.2584869
41	0xbe534aff	-0.20634077
42	0xbe707e6a	-0.23485723
43	0xbe5364b5	-0.20643885
44	0xbe72cb18	-0.23710287
45	0xbe2a4dc1	-0.16631223
46	0xbe6d7e45	-0.23192699
47	0xbe87f1e4	-0.26551735
48	0xbe79cafd	-0.2439384
49	0xbe615cd8	-0.22008073
50	0xbe32e3cb	-0.17469709
51	0xbe650320	-0.22364473
52	0xbe5e9866	-0.21737823
53	0xbe5ae4ad	-0.21376295
54	0xbe727771	-0.23678376
55	0xbe4f9814	-0.20272857
56	0xbe847157	-0.2586772
57	0xbe4b18f4	-0.19833738
58	0xbe43953b	-0.19099896
59	0xbe47fe35	-0.19530566
60	0xbe6b97b8	-0.23007095
61	0xbe7b4b33	-0.24540405
62	0xbe6f17b0	-0.2334888
63	0xbe5de507	-0.21669398
64	0xbe7364bd	-0.23768897
65	0xbe45976a	-0.19296041
66	0xbe88d848	-0.2672751
67	0xbe7664f2	-0.24061945
68	0xbe6dc7b0	-0.23220706
69	0xbe6797e2	-0.22616532
70	0xbe6fb1a6	-0.23407611
71	0xbe72e479	-0.23719968
72	0xbe4664fa	-0.19374457
73	0xbe55e4ee	-0.20888111
74	0xbe659818	-0.224213
75	0xbe439698	-0.19100416
76	0xbe2afee6	-0.16698799
77	0xbe4f1cc7	-0.20225821
78	0xbe7b052f	-0.24513696
79	0xbe5b982d	-0.21444769
80	0xbe1ba18e	-0.15198347
81	0xbe570fce	-0.21002123
82	0xbe8362ba	-0.2566126
83	0xbe923b64	-0.28560936
84	0xbe7d7da5	-0.24754961
85	0xbe853eb8	-0.26024413
86	0xbe4117b4	-0.18856698
87	0xbe47d43f	-0.19514559
88	0xbe862fd8	-0.26208377
89	0xbe3c14f0	-0.18367362
90	0xbe33317d	-0.17499347
91	0xbe627e78	-0.22118556
92	0xbe6717b5	-0.22567637
93	0xbe5acac7	-0.21366416
94	0xbe6db196	-0.23212275
95	0xbe799cf7	-0.24376284
96	0xbe5ab05a	-0.21356335
97	0xbe3764ec	-0.17909592
98	0xbe5c3433	-0.21504287
99	0xbe8e700e	-0.27819866
100	0xbe8de4e9	-0.27713707
101	0xbe3f15e5	-0.18660696
102	0xbe613434	-0.2199257
103	0xbe4afe1b	-0.19823496
104	0xbe477b24	-0.19480568
105	0xbe63314c	-0.22186774
106	0xbe7897c8	-0.2427665
107	0xbe8f8af9	-0.28035715
108	0xbe62fe78	-0.22167385
109	0xbe5f970e	-0.21834967
110	0xbe53a8ba	-0.20669833
111	0xbe57ab15	-0.21061356
112	0xbe84e38c	-0.25954854
113	0xbe81b4a8	-0.25333142
114	0xbe6aa9c6	-0.22916326
115	0xbe105aa4	-0.14097077
116	0xbe247f4b	-0.16064183
117	0xbe443dd1	-0.19164206
118	0xbe464a5e	-0.19364306
119	0xbe50181d	-0.20321698
120	0xbe63a8c7	-0.22232352
121	0xbe846565	-0.25858608
122	0xbe70f398	-0.23530424
123	0xbe849987	-0.25898382
124	0xbe74fe29	-0.2392508
125	0xbe521295	-0.20514901
126	0xbe3c1800	-0.1836853
127	0xbe671826	-0.22567806
